…
[I] Model loaded from trained_Mobilenetv1.pt
mode: Non-pruned model=True, Test accuracy=77.5600
conv1.weight
layers.0.conv2.weight
layers.1.conv2.weight
layers.2.conv2.weight
layers.3.conv2.weight
layers.4.conv2.weight
layers.5.conv2.weight
layers.6.conv2.weight
layers.7.conv2.weight
layers.8.conv2.weight
layers.9.conv2.weight
layers.10.conv2.weight
layers.11.conv2.weight
layers.12.conv2.weight
----------------------------------------------------------------
        Layer (type)               Output Shape         Param #
================================================================
            Conv2d-1           [-1, 30, 32, 32]             810
       BatchNorm2d-2           [-1, 30, 32, 32]              60
            Conv2d-3           [-1, 30, 32, 32]             270
       BatchNorm2d-4           [-1, 30, 32, 32]              60
            Conv2d-5           [-1, 60, 32, 32]           1,800
       BatchNorm2d-6           [-1, 60, 32, 32]             120
             Block-7           [-1, 60, 32, 32]               0
            Conv2d-8           [-1, 60, 16, 16]             540
       BatchNorm2d-9           [-1, 60, 16, 16]             120
           Conv2d-10          [-1, 121, 16, 16]           7,260
      BatchNorm2d-11          [-1, 121, 16, 16]             242
            Block-12          [-1, 121, 16, 16]               0
           Conv2d-13          [-1, 121, 16, 16]           1,089
      BatchNorm2d-14          [-1, 121, 16, 16]             242
           Conv2d-15          [-1, 121, 16, 16]          14,641
      BatchNorm2d-16          [-1, 121, 16, 16]             242
            Block-17          [-1, 121, 16, 16]               0
           Conv2d-18            [-1, 121, 8, 8]           1,089
      BatchNorm2d-19            [-1, 121, 8, 8]             242
           Conv2d-20            [-1, 243, 8, 8]          29,403
      BatchNorm2d-21            [-1, 243, 8, 8]             486
            Block-22            [-1, 243, 8, 8]               0
           Conv2d-23            [-1, 243, 8, 8]           2,187
      BatchNorm2d-24            [-1, 243, 8, 8]             486
           Conv2d-25            [-1, 243, 8, 8]          59,049
      BatchNorm2d-26            [-1, 243, 8, 8]             486
            Block-27            [-1, 243, 8, 8]               0
           Conv2d-28            [-1, 243, 4, 4]           2,187
      BatchNorm2d-29            [-1, 243, 4, 4]             486
           Conv2d-30            [-1, 486, 4, 4]         118,098
      BatchNorm2d-31            [-1, 486, 4, 4]             972
            Block-32            [-1, 486, 4, 4]               0
           Conv2d-33            [-1, 486, 4, 4]           4,374
      BatchNorm2d-34            [-1, 486, 4, 4]             972
           Conv2d-35            [-1, 486, 4, 4]         236,196
      BatchNorm2d-36            [-1, 486, 4, 4]             972
            Block-37            [-1, 486, 4, 4]               0
           Conv2d-38            [-1, 486, 4, 4]           4,374
      BatchNorm2d-39            [-1, 486, 4, 4]             972
           Conv2d-40            [-1, 486, 4, 4]         236,196
      BatchNorm2d-41            [-1, 486, 4, 4]             972
            Block-42            [-1, 486, 4, 4]               0
           Conv2d-43            [-1, 486, 4, 4]           4,374
      BatchNorm2d-44            [-1, 486, 4, 4]             972
           Conv2d-45            [-1, 486, 4, 4]         236,196
      BatchNorm2d-46            [-1, 486, 4, 4]             972
            Block-47            [-1, 486, 4, 4]               0
           Conv2d-48            [-1, 486, 4, 4]           4,374
      BatchNorm2d-49            [-1, 486, 4, 4]             972
           Conv2d-50            [-1, 486, 4, 4]         236,196
      BatchNorm2d-51            [-1, 486, 4, 4]             972
            Block-52            [-1, 486, 4, 4]               0
           Conv2d-53            [-1, 486, 4, 4]           4,374
      BatchNorm2d-54            [-1, 486, 4, 4]             972
           Conv2d-55            [-1, 486, 4, 4]         236,196
      BatchNorm2d-56            [-1, 486, 4, 4]             972
            Block-57            [-1, 486, 4, 4]               0
           Conv2d-58            [-1, 486, 2, 2]           4,374
      BatchNorm2d-59            [-1, 486, 2, 2]             972
           Conv2d-60            [-1, 972, 2, 2]         472,392
      BatchNorm2d-61            [-1, 972, 2, 2]           1,944
            Block-62            [-1, 972, 2, 2]               0
           Conv2d-63            [-1, 972, 2, 2]           8,748
      BatchNorm2d-64            [-1, 972, 2, 2]           1,944
           Conv2d-65            [-1, 972, 2, 2]         944,784
      BatchNorm2d-66            [-1, 972, 2, 2]           1,944
            Block-67            [-1, 972, 2, 2]               0
           Linear-68                   [-1, 10]           9,730
================================================================
Total params: 2,902,069
Trainable params: 2,902,069
Non-trainable params: 0
----------------------------------------------------------------
Input size (MB): 0.01
Forward/backward pass size (MB): 7.52
Params size (MB): 11.07
Estimated Total Size (MB): 18.61
----------------------------------------------------------------
Epoch: [ 1/ 20], Step: [ 100/ 390], Loss: 0.1250
…
[I] Model loaded from trained_Mobilenetv1.pt
mode: Non-pruned model=True, Test accuracy=77.5600
conv1.weight
layers.0.conv2.weight
layers.1.conv2.weight
layers.2.conv2.weight
layers.3.conv2.weight
layers.4.conv2.weight
layers.5.conv2.weight
layers.6.conv2.weight
layers.7.conv2.weight
layers.8.conv2.weight
layers.9.conv2.weight
layers.10.conv2.weight
layers.11.conv2.weight
layers.12.conv2.weight
----------------------------------------------------------------
        Layer (type)               Output Shape         Param #
================================================================
            Conv2d-1           [-1, 28, 32, 32]             756
       BatchNorm2d-2           [-1, 28, 32, 32]              56
            Conv2d-3           [-1, 28, 32, 32]             252
       BatchNorm2d-4           [-1, 28, 32, 32]              56
            Conv2d-5           [-1, 57, 32, 32]           1,596
       BatchNorm2d-6           [-1, 57, 32, 32]             114
             Block-7           [-1, 57, 32, 32]               0
            Conv2d-8           [-1, 57, 16, 16]             513
       BatchNorm2d-9           [-1, 57, 16, 16]             114
           Conv2d-10          [-1, 115, 16, 16]           6,555
      BatchNorm2d-11          [-1, 115, 16, 16]             230
            Block-12          [-1, 115, 16, 16]               0
           Conv2d-13          [-1, 115, 16, 16]           1,035
      BatchNorm2d-14          [-1, 115, 16, 16]             230
           Conv2d-15          [-1, 115, 16, 16]          13,225
      BatchNorm2d-16          [-1, 115, 16, 16]             230
            Block-17          [-1, 115, 16, 16]               0
           Conv2d-18            [-1, 115, 8, 8]           1,035
      BatchNorm2d-19            [-1, 115, 8, 8]             230
           Conv2d-20            [-1, 230, 8, 8]          26,450
      BatchNorm2d-21            [-1, 230, 8, 8]             460
            Block-22            [-1, 230, 8, 8]               0
           Conv2d-23            [-1, 230, 8, 8]           2,070
      BatchNorm2d-24            [-1, 230, 8, 8]             460
           Conv2d-25            [-1, 230, 8, 8]          52,900
      BatchNorm2d-26            [-1, 230, 8, 8]             460
            Block-27            [-1, 230, 8, 8]               0
           Conv2d-28            [-1, 230, 4, 4]           2,070
      BatchNorm2d-29            [-1, 230, 4, 4]             460
           Conv2d-30            [-1, 460, 4, 4]         105,800
      BatchNorm2d-31            [-1, 460, 4, 4]             920
            Block-32            [-1, 460, 4, 4]               0
           Conv2d-33            [-1, 460, 4, 4]           4,140
      BatchNorm2d-34            [-1, 460, 4, 4]             920
           Conv2d-35            [-1, 460, 4, 4]         211,600
      BatchNorm2d-36            [-1, 460, 4, 4]             920
            Block-37            [-1, 460, 4, 4]               0
           Conv2d-38            [-1, 460, 4, 4]           4,140
      BatchNorm2d-39            [-1, 460, 4, 4]             920
           Conv2d-40            [-1, 460, 4, 4]         211,600
      BatchNorm2d-41            [-1, 460, 4, 4]             920
            Block-42            [-1, 460, 4, 4]               0
           Conv2d-43            [-1, 460, 4, 4]           4,140
      BatchNorm2d-44            [-1, 460, 4, 4]             920
           Conv2d-45            [-1, 460, 4, 4]         211,600
      BatchNorm2d-46            [-1, 460, 4, 4]             920
            Block-47            [-1, 460, 4, 4]               0
           Conv2d-48            [-1, 460, 4, 4]           4,140
      BatchNorm2d-49            [-1, 460, 4, 4]             920
           Conv2d-50            [-1, 460, 4, 4]         211,600
      BatchNorm2d-51            [-1, 460, 4, 4]             920
            Block-52            [-1, 460, 4, 4]               0
           Conv2d-53            [-1, 460, 4, 4]           4,140
      BatchNorm2d-54            [-1, 460, 4, 4]             920
           Conv2d-55            [-1, 460, 4, 4]         211,600
      BatchNorm2d-56            [-1, 460, 4, 4]             920
            Block-57            [-1, 460, 4, 4]               0
           Conv2d-58            [-1, 460, 2, 2]           4,140
      BatchNorm2d-59            [-1, 460, 2, 2]             920
           Conv2d-60            [-1, 921, 2, 2]         423,660
      BatchNorm2d-61            [-1, 921, 2, 2]           1,842
            Block-62            [-1, 921, 2, 2]               0
           Conv2d-63            [-1, 921, 2, 2]           8,289
      BatchNorm2d-64            [-1, 921, 2, 2]           1,842
           Conv2d-65            [-1, 921, 2, 2]         848,241
      BatchNorm2d-66            [-1, 921, 2, 2]           1,842
            Block-67            [-1, 921, 2, 2]               0
           Linear-68                   [-1, 10]           9,220
================================================================
Total params: 2,606,173
Trainable params: 2,606,173
Non-trainable params: 0
----------------------------------------------------------------
Input size (MB): 0.01
Forward/backward pass size (MB): 7.12
Params size (MB): 9.94
Estimated Total Size (MB): 17.08
----------------------------------------------------------------
Epoch: [ 1/ 20], Step: [ 100/ 390], Loss: 0.3475
…
[I] Model loaded from trained_Mobilenetv1.pt
mode: Non-pruned model=True, Test accuracy=77.5600
conv1.weight
layers.0.conv2.weight
layers.1.conv2.weight
layers.2.conv2.weight
layers.3.conv2.weight
layers.4.conv2.weight
layers.5.conv2.weight
layers.6.conv2.weight
layers.7.conv2.weight
layers.8.conv2.weight
layers.9.conv2.weight
layers.10.conv2.weight
layers.11.conv2.weight
layers.12.conv2.weight
----------------------------------------------------------------
        Layer (type)               Output Shape         Param #
================================================================
            Conv2d-1           [-1, 25, 32, 32]             675
       BatchNorm2d-2           [-1, 25, 32, 32]              50
            Conv2d-3           [-1, 25, 32, 32]             225
       BatchNorm2d-4           [-1, 25, 32, 32]              50
            Conv2d-5           [-1, 51, 32, 32]           1,275
       BatchNorm2d-6           [-1, 51, 32, 32]             102
             Block-7           [-1, 51, 32, 32]               0
            Conv2d-8           [-1, 51, 16, 16]             459
       BatchNorm2d-9           [-1, 51, 16, 16]             102
           Conv2d-10          [-1, 102, 16, 16]           5,202
      BatchNorm2d-11          [-1, 102, 16, 16]             204
            Block-12          [-1, 102, 16, 16]               0
           Conv2d-13          [-1, 102, 16, 16]             918
      BatchNorm2d-14          [-1, 102, 16, 16]             204
           Conv2d-15          [-1, 102, 16, 16]          10,404
      BatchNorm2d-16          [-1, 102, 16, 16]             204
            Block-17          [-1, 102, 16, 16]               0
           Conv2d-18            [-1, 102, 8, 8]             918
      BatchNorm2d-19            [-1, 102, 8, 8]             204
           Conv2d-20            [-1, 205, 8, 8]          20,910
      BatchNorm2d-21            [-1, 205, 8, 8]             410
            Block-22            [-1, 205, 8, 8]               0
           Conv2d-23            [-1, 205, 8, 8]           1,845
      BatchNorm2d-24            [-1, 205, 8, 8]             410
           Conv2d-25            [-1, 205, 8, 8]          42,025
      BatchNorm2d-26            [-1, 205, 8, 8]             410
            Block-27            [-1, 205, 8, 8]               0
           Conv2d-28            [-1, 205, 4, 4]           1,845
      BatchNorm2d-29            [-1, 205, 4, 4]             410
           Conv2d-30            [-1, 409, 4, 4]          83,845
      BatchNorm2d-31            [-1, 409, 4, 4]             818
            Block-32            [-1, 409, 4, 4]               0
           Conv2d-33            [-1, 409, 4, 4]           3,681
      BatchNorm2d-34            [-1, 409, 4, 4]             818
           Conv2d-35            [-1, 409, 4, 4]         167,281
      BatchNorm2d-36            [-1, 409, 4, 4]             818
            Block-37            [-1, 409, 4, 4]               0
           Conv2d-38            [-1, 409, 4, 4]           3,681
      BatchNorm2d-39            [-1, 409, 4, 4]             818
           Conv2d-40            [-1, 409, 4, 4]         167,281
      BatchNorm2d-41            [-1, 409, 4, 4]             818
            Block-42            [-1, 409, 4, 4]               0
           Conv2d-43            [-1, 409, 4, 4]           3,681
      BatchNorm2d-44            [-1, 409, 4, 4]             818
           Conv2d-45            [-1, 409, 4, 4]         167,281
      BatchNorm2d-46            [-1, 409, 4, 4]             818
            Block-47            [-1, 409, 4, 4]               0
           Conv2d-48            [-1, 409, 4, 4]           3,681
      BatchNorm2d-49            [-1, 409, 4, 4]             818
           Conv2d-50            [-1, 409, 4, 4]         167,281
      BatchNorm2d-51            [-1, 409, 4, 4]             818
            Block-52            [-1, 409, 4, 4]               0
           Conv2d-53            [-1, 409, 4, 4]           3,681
      BatchNorm2d-54            [-1, 409, 4, 4]             818
           Conv2d-55            [-1, 409, 4, 4]         167,281
      BatchNorm2d-56            [-1, 409, 4, 4]             818
            Block-57            [-1, 409, 4, 4]               0
           Conv2d-58            [-1, 409, 2, 2]           3,681
      BatchNorm2d-59            [-1, 409, 2, 2]             818
           Conv2d-60            [-1, 819, 2, 2]         334,971
      BatchNorm2d-61            [-1, 819, 2, 2]           1,638
            Block-62            [-1, 819, 2, 2]               0
           Conv2d-63            [-1, 819, 2, 2]           7,371
      BatchNorm2d-64            [-1, 819, 2, 2]           1,638
           Conv2d-65            [-1, 819, 2, 2]         670,761
      BatchNorm2d-66            [-1, 819, 2, 2]           1,638
            Block-67            [-1, 819, 2, 2]               0
           Linear-68                   [-1, 10]           8,200
================================================================
Total params: 2,067,830
Trainable params: 2,067,830
Non-trainable params: 0
----------------------------------------------------------------
Input size (MB): 0.01
Forward/backward pass size (MB): 6.34
Params size (MB): 7.89
Estimated Total Size (MB): 14.24
----------------------------------------------------------------
Epoch: [ 1/ 20], Step: [ 100/ 390], Loss: 0.9556
…
[I] Model loaded from trained_Mobilenetv1.pt
mode: Non-pruned model=True, Test accuracy=77.5600
conv1.weight
layers.0.conv2.weight
layers.1.conv2.weight
layers.2.conv2.weight
layers.3.conv2.weight
layers.4.conv2.weight
layers.5.conv2.weight
layers.6.conv2.weight
layers.7.conv2.weight
layers.8.conv2.weight
layers.9.conv2.weight
layers.10.conv2.weight
layers.11.conv2.weight
layers.12.conv2.weight
----------------------------------------------------------------
        Layer (type)               Output Shape         Param #
================================================================
            Conv2d-1           [-1, 22, 32, 32]             594
       BatchNorm2d-2           [-1, 22, 32, 32]              44
            Conv2d-3           [-1, 22, 32, 32]             198
       BatchNorm2d-4           [-1, 22, 32, 32]              44
            Conv2d-5           [-1, 45, 32, 32]             990
       BatchNorm2d-6           [-1, 45, 32, 32]              90
             Block-7           [-1, 45, 32, 32]               0
            Conv2d-8           [-1, 45, 16, 16]             405
       BatchNorm2d-9           [-1, 45, 16, 16]              90
           Conv2d-10           [-1, 89, 16, 16]           4,005
      BatchNorm2d-11           [-1, 89, 16, 16]             178
            Block-12           [-1, 89, 16, 16]               0
           Conv2d-13           [-1, 89, 16, 16]             801
      BatchNorm2d-14           [-1, 89, 16, 16]             178
           Conv2d-15           [-1, 89, 16, 16]           7,921
      BatchNorm2d-16           [-1, 89, 16, 16]             178
            Block-17           [-1, 89, 16, 16]               0
           Conv2d-18             [-1, 89, 8, 8]             801
      BatchNorm2d-19             [-1, 89, 8, 8]             178
           Conv2d-20            [-1, 179, 8, 8]          15,931
      BatchNorm2d-21            [-1, 179, 8, 8]             358
            Block-22            [-1, 179, 8, 8]               0
           Conv2d-23            [-1, 179, 8, 8]           1,611
      BatchNorm2d-24            [-1, 179, 8, 8]             358
           Conv2d-25            [-1, 179, 8, 8]          32,041
      BatchNorm2d-26            [-1, 179, 8, 8]             358
            Block-27            [-1, 179, 8, 8]               0
           Conv2d-28            [-1, 179, 4, 4]           1,611
      BatchNorm2d-29            [-1, 179, 4, 4]             358
           Conv2d-30            [-1, 358, 4, 4]          64,082
      BatchNorm2d-31            [-1, 358, 4, 4]             716
            Block-32            [-1, 358, 4, 4]               0
           Conv2d-33            [-1, 358, 4, 4]           3,222
      BatchNorm2d-34            [-1, 358, 4, 4]             716
           Conv2d-35            [-1, 358, 4, 4]         128,164
      BatchNorm2d-36            [-1, 358, 4, 4]             716
            Block-37            [-1, 358, 4, 4]               0
           Conv2d-38            [-1, 358, 4, 4]           3,222
      BatchNorm2d-39            [-1, 358, 4, 4]             716
           Conv2d-40            [-1, 358, 4, 4]         128,164
      BatchNorm2d-41            [-1, 358, 4, 4]             716
            Block-42            [-1, 358, 4, 4]               0
           Conv2d-43            [-1, 358, 4, 4]           3,222
      BatchNorm2d-44            [-1, 358, 4, 4]             716
           Conv2d-45            [-1, 358, 4, 4]         128,164
      BatchNorm2d-46            [-1, 358, 4, 4]             716
            Block-47            [-1, 358, 4, 4]               0
           Conv2d-48            [-1, 358, 4, 4]           3,222
      BatchNorm2d-49            [-1, 358, 4, 4]             716
           Conv2d-50            [-1, 358, 4, 4]         128,164
      BatchNorm2d-51            [-1, 358, 4, 4]             716
            Block-52            [-1, 358, 4, 4]               0
           Conv2d-53            [-1, 358, 4, 4]           3,222
      BatchNorm2d-54            [-1, 358, 4, 4]             716
           Conv2d-55            [-1, 358, 4, 4]         128,164
      BatchNorm2d-56            [-1, 358, 4, 4]             716
            Block-57            [-1, 358, 4, 4]               0
           Conv2d-58            [-1, 358, 2, 2]           3,222
      BatchNorm2d-59            [-1, 358, 2, 2]             716
           Conv2d-60            [-1, 717, 2, 2]         256,686
      BatchNorm2d-61            [-1, 717, 2, 2]           1,434
            Block-62            [-1, 717, 2, 2]               0
           Conv2d-63            [-1, 717, 2, 2]           6,453
      BatchNorm2d-64            [-1, 717, 2, 2]           1,434
           Conv2d-65            [-1, 717, 2, 2]         514,089
      BatchNorm2d-66            [-1, 717, 2, 2]           1,434
            Block-67            [-1, 717, 2, 2]               0
           Linear-68                   [-1, 10]           7,180
================================================================
Total params: 1,590,857
Trainable params: 1,590,857
Non-trainable params: 0
----------------------------------------------------------------
Input size (MB): 0.01
Forward/backward pass size (MB): 5.56
Params size (MB): 6.07
Estimated Total Size (MB): 11.64
----------------------------------------------------------------
Epoch: [ 1/ 20], Step: [ 100/ 390], Loss: 1.2971
…
[I] Model loaded from trained_Mobilenetv1.pt
mode: Non-pruned model=True, Test accuracy=77.5600
conv1.weight
layers.0.conv2.weight
layers.1.conv2.weight
layers.2.conv2.weight
layers.3.conv2.weight
layers.4.conv2.weight
layers.5.conv2.weight
layers.6.conv2.weight
layers.7.conv2.weight
layers.8.conv2.weight
layers.9.conv2.weight
layers.10.conv2.weight
layers.11.conv2.weight
layers.12.conv2.weight
----------------------------------------------------------------
        Layer (type)               Output Shape         Param #
================================================================
            Conv2d-1           [-1, 19, 32, 32]             513
       BatchNorm2d-2           [-1, 19, 32, 32]              38
            Conv2d-3           [-1, 19, 32, 32]             171
       BatchNorm2d-4           [-1, 19, 32, 32]              38
            Conv2d-5           [-1, 38, 32, 32]             722
       BatchNorm2d-6           [-1, 38, 32, 32]              76
             Block-7           [-1, 38, 32, 32]               0
            Conv2d-8           [-1, 38, 16, 16]             342
       BatchNorm2d-9           [-1, 38, 16, 16]              76
           Conv2d-10           [-1, 77, 16, 16]           2,926
      BatchNorm2d-11           [-1, 77, 16, 16]             154
            Block-12           [-1, 77, 16, 16]               0
           Conv2d-13           [-1, 77, 16, 16]             693
      BatchNorm2d-14           [-1, 77, 16, 16]             154
           Conv2d-15           [-1, 77, 16, 16]           5,929
      BatchNorm2d-16           [-1, 77, 16, 16]             154
            Block-17           [-1, 77, 16, 16]               0
           Conv2d-18             [-1, 77, 8, 8]             693
      BatchNorm2d-19             [-1, 77, 8, 8]             154
           Conv2d-20            [-1, 154, 8, 8]          11,858
      BatchNorm2d-21            [-1, 154, 8, 8]             308
            Block-22            [-1, 154, 8, 8]               0
           Conv2d-23            [-1, 154, 8, 8]           1,386
      BatchNorm2d-24            [-1, 154, 8, 8]             308
           Conv2d-25            [-1, 154, 8, 8]          23,716
      BatchNorm2d-26            [-1, 154, 8, 8]             308
            Block-27            [-1, 154, 8, 8]               0
           Conv2d-28            [-1, 154, 4, 4]           1,386
      BatchNorm2d-29            [-1, 154, 4, 4]             308
           Conv2d-30            [-1, 307, 4, 4]          47,278
      BatchNorm2d-31            [-1, 307, 4, 4]             614
            Block-32            [-1, 307, 4, 4]               0
           Conv2d-33            [-1, 307, 4, 4]           2,763
      BatchNorm2d-34            [-1, 307, 4, 4]             614
           Conv2d-35            [-1, 307, 4, 4]          94,249
      BatchNorm2d-36            [-1, 307, 4, 4]             614
            Block-37            [-1, 307, 4, 4]               0
           Conv2d-38            [-1, 307, 4, 4]           2,763
      BatchNorm2d-39            [-1, 307, 4, 4]             614
           Conv2d-40            [-1, 307, 4, 4]          94,249
      BatchNorm2d-41            [-1, 307, 4, 4]             614
            Block-42            [-1, 307, 4, 4]               0
           Conv2d-43            [-1, 307, 4, 4]           2,763
      BatchNorm2d-44            [-1, 307, 4, 4]             614
           Conv2d-45            [-1, 307, 4, 4]          94,249
      BatchNorm2d-46            [-1, 307, 4, 4]             614
            Block-47            [-1, 307, 4, 4]               0
           Conv2d-48            [-1, 307, 4, 4]           2,763
      BatchNorm2d-49            [-1, 307, 4, 4]             614
           Conv2d-50            [-1, 307, 4, 4]          94,249
      BatchNorm2d-51            [-1, 307, 4, 4]             614
            Block-52            [-1, 307, 4, 4]               0
           Conv2d-53            [-1, 307, 4, 4]           2,763
      BatchNorm2d-54            [-1, 307, 4, 4]             614
           Conv2d-55            [-1, 307, 4, 4]          94,249
      BatchNorm2d-56            [-1, 307, 4, 4]             614
            Block-57            [-1, 307, 4, 4]               0
           Conv2d-58            [-1, 307, 2, 2]           2,763
      BatchNorm2d-59            [-1, 307, 2, 2]             614
           Conv2d-60            [-1, 614, 2, 2]         188,498
      BatchNorm2d-61            [-1, 614, 2, 2]           1,228
            Block-62            [-1, 614, 2, 2]               0
           Conv2d-63            [-1, 614, 2, 2]           5,526
      BatchNorm2d-64            [-1, 614, 2, 2]           1,228
           Conv2d-65            [-1, 614, 2, 2]         376,996
      BatchNorm2d-66            [-1, 614, 2, 2]           1,228
            Block-67            [-1, 614, 2, 2]               0
           Linear-68                   [-1, 10]           6,150
================================================================
Total params: 1,175,734
Trainable params: 1,175,734
Non-trainable params: 0
----------------------------------------------------------------
Input size (MB): 0.01
Forward/backward pass size (MB): 4.77
Params size (MB): 4.49
Estimated Total Size (MB): 9.27
----------------------------------------------------------------
Epoch: [ 1/ 20], Step: [ 100/ 390], Loss: 1.4930
…
[I] Model loaded from trained_Mobilenetv1.pt
mode: Non-pruned model=True, Test accuracy=77.5600
conv1.weight
layers.0.conv2.weight
layers.1.conv2.weight
layers.2.conv2.weight
layers.3.conv2.weight
layers.4.conv2.weight
layers.5.conv2.weight
layers.6.conv2.weight
layers.7.conv2.weight
layers.8.conv2.weight
layers.9.conv2.weight
layers.10.conv2.weight
layers.11.conv2.weight
layers.12.conv2.weight
----------------------------------------------------------------
        Layer (type)               Output Shape         Param #
================================================================
            Conv2d-1           [-1, 16, 32, 32]             432
       BatchNorm2d-2           [-1, 16, 32, 32]              32
            Conv2d-3           [-1, 16, 32, 32]             144
       BatchNorm2d-4           [-1, 16, 32, 32]              32
            Conv2d-5           [-1, 32, 32, 32]             512
       BatchNorm2d-6           [-1, 32, 32, 32]              64
             Block-7           [-1, 32, 32, 32]               0
            Conv2d-8           [-1, 32, 16, 16]             288
       BatchNorm2d-9           [-1, 32, 16, 16]              64
           Conv2d-10           [-1, 64, 16, 16]           2,048
      BatchNorm2d-11           [-1, 64, 16, 16]             128
            Block-12           [-1, 64, 16, 16]               0
           Conv2d-13           [-1, 64, 16, 16]             576
      BatchNorm2d-14           [-1, 64, 16, 16]             128
           Conv2d-15           [-1, 64, 16, 16]           4,096
      BatchNorm2d-16           [-1, 64, 16, 16]             128
            Block-17           [-1, 64, 16, 16]               0
           Conv2d-18             [-1, 64, 8, 8]             576
      BatchNorm2d-19             [-1, 64, 8, 8]             128
           Conv2d-20            [-1, 128, 8, 8]           8,192
      BatchNorm2d-21            [-1, 128, 8, 8]             256
            Block-22            [-1, 128, 8, 8]               0
           Conv2d-23            [-1, 128, 8, 8]           1,152
      BatchNorm2d-24            [-1, 128, 8, 8]             256
           Conv2d-25            [-1, 128, 8, 8]          16,384
      BatchNorm2d-26            [-1, 128, 8, 8]             256
            Block-27            [-1, 128, 8, 8]               0
           Conv2d-28            [-1, 128, 4, 4]           1,152
      BatchNorm2d-29            [-1, 128, 4, 4]             256
           Conv2d-30            [-1, 256, 4, 4]          32,768
      BatchNorm2d-31            [-1, 256, 4, 4]             512
            Block-32            [-1, 256, 4, 4]               0
           Conv2d-33            [-1, 256, 4, 4]           2,304
      BatchNorm2d-34            [-1, 256, 4, 4]             512
           Conv2d-35            [-1, 256, 4, 4]          65,536
      BatchNorm2d-36            [-1, 256, 4, 4]             512
            Block-37            [-1, 256, 4, 4]               0
           Conv2d-38            [-1, 256, 4, 4]           2,304
      BatchNorm2d-39            [-1, 256, 4, 4]             512
           Conv2d-40            [-1, 256, 4, 4]          65,536
      BatchNorm2d-41            [-1, 256, 4, 4]             512
            Block-42            [-1, 256, 4, 4]               0
           Conv2d-43            [-1, 256, 4, 4]           2,304
      BatchNorm2d-44            [-1, 256, 4, 4]             512
           Conv2d-45            [-1, 256, 4, 4]          65,536
      BatchNorm2d-46            [-1, 256, 4, 4]             512
            Block-47            [-1, 256, 4, 4]               0
           Conv2d-48            [-1, 256, 4, 4]           2,304
      BatchNorm2d-49            [-1, 256, 4, 4]             512
           Conv2d-50            [-1, 256, 4, 4]          65,536
      BatchNorm2d-51            [-1, 256, 4, 4]             512
            Block-52            [-1, 256, 4, 4]               0
           Conv2d-53            [-1, 256, 4, 4]           2,304
      BatchNorm2d-54            [-1, 256, 4, 4]             512
           Conv2d-55            [-1, 256, 4, 4]          65,536
      BatchNorm2d-56            [-1, 256, 4, 4]             512
            Block-57            [-1, 256, 4, 4]               0
           Conv2d-58            [-1, 256, 2, 2]           2,304
      BatchNorm2d-59            [-1, 256, 2, 2]             512
           Conv2d-60            [-1, 512, 2, 2]         131,072
      BatchNorm2d-61            [-1, 512, 2, 2]           1,024
            Block-62            [-1, 512, 2, 2]               0
           Conv2d-63            [-1, 512, 2, 2]           4,608
      BatchNorm2d-64            [-1, 512, 2, 2]           1,024
           Conv2d-65            [-1, 512, 2, 2]         262,144
      BatchNorm2d-66            [-1, 512, 2, 2]           1,024
            Block-67            [-1, 512, 2, 2]               0
           Linear-68                   [-1, 10]           5,130
================================================================
Total params: 823,722
Trainable params: 823,722
Non-trainable params: 0
----------------------------------------------------------------
Input size (MB): 0.01
Forward/backward pass size (MB): 3.98
Params size (MB): 3.14
Estimated Total Size (MB): 7.14
----------------------------------------------------------------
Epoch: [ 1/ 20], Step: [ 100/ 390], Loss: 1.7798
…
[I] Model loaded from trained_Mobilenetv1.pt
mode: Non-pruned model=True, Test accuracy=77.5600
conv1.weight
layers.0.conv2.weight
layers.1.conv2.weight
layers.2.conv2.weight
layers.3.conv2.weight
layers.4.conv2.weight
layers.5.conv2.weight
layers.6.conv2.weight
layers.7.conv2.weight
layers.8.conv2.weight
layers.9.conv2.weight
layers.10.conv2.weight
layers.11.conv2.weight
layers.12.conv2.weight
----------------------------------------------------------------
        Layer (type)               Output Shape         Param #
================================================================
            Conv2d-1           [-1, 13, 32, 32]             351
       BatchNorm2d-2           [-1, 13, 32, 32]              26
            Conv2d-3           [-1, 13, 32, 32]             117
       BatchNorm2d-4           [-1, 13, 32, 32]              26
            Conv2d-5           [-1, 26, 32, 32]             338
       BatchNorm2d-6           [-1, 26, 32, 32]              52
             Block-7           [-1, 26, 32, 32]               0
            Conv2d-8           [-1, 26, 16, 16]             234
       BatchNorm2d-9           [-1, 26, 16, 16]              52
           Conv2d-10           [-1, 51, 16, 16]           1,326
      BatchNorm2d-11           [-1, 51, 16, 16]             102
            Block-12           [-1, 51, 16, 16]               0
           Conv2d-13           [-1, 51, 16, 16]             459
      BatchNorm2d-14           [-1, 51, 16, 16]             102
           Conv2d-15           [-1, 51, 16, 16]           2,601
      BatchNorm2d-16           [-1, 51, 16, 16]             102
            Block-17           [-1, 51, 16, 16]               0
           Conv2d-18             [-1, 51, 8, 8]             459
      BatchNorm2d-19             [-1, 51, 8, 8]             102
           Conv2d-20            [-1, 103, 8, 8]           5,253
      BatchNorm2d-21            [-1, 103, 8, 8]             206
            Block-22            [-1, 103, 8, 8]               0
           Conv2d-23            [-1, 103, 8, 8]             927
      BatchNorm2d-24            [-1, 103, 8, 8]             206
           Conv2d-25            [-1, 103, 8, 8]          10,609
      BatchNorm2d-26            [-1, 103, 8, 8]             206
            Block-27            [-1, 103, 8, 8]               0
           Conv2d-28            [-1, 103, 4, 4]             927
      BatchNorm2d-29            [-1, 103, 4, 4]             206
           Conv2d-30            [-1, 205, 4, 4]          21,115
      BatchNorm2d-31            [-1, 205, 4, 4]             410
            Block-32            [-1, 205, 4, 4]               0
           Conv2d-33            [-1, 205, 4, 4]           1,845
      BatchNorm2d-34            [-1, 205, 4, 4]             410
           Conv2d-35            [-1, 205, 4, 4]          42,025
      BatchNorm2d-36            [-1, 205, 4, 4]             410
            Block-37            [-1, 205, 4, 4]               0
           Conv2d-38            [-1, 205, 4, 4]           1,845
      BatchNorm2d-39            [-1, 205, 4, 4]             410
           Conv2d-40            [-1, 205, 4, 4]          42,025
      BatchNorm2d-41            [-1, 205, 4, 4]             410
            Block-42            [-1, 205, 4, 4]               0
           Conv2d-43            [-1, 205, 4, 4]           1,845
      BatchNorm2d-44            [-1, 205, 4, 4]             410
           Conv2d-45            [-1, 205, 4, 4]          42,025
      BatchNorm2d-46            [-1, 205, 4, 4]             410
            Block-47            [-1, 205, 4, 4]               0
           Conv2d-48            [-1, 205, 4, 4]           1,845
      BatchNorm2d-49            [-1, 205, 4, 4]             410
           Conv2d-50            [-1, 205, 4, 4]          42,025
      BatchNorm2d-51            [-1, 205, 4, 4]             410
            Block-52            [-1, 205, 4, 4]               0
           Conv2d-53            [-1, 205, 4, 4]           1,845
      BatchNorm2d-54            [-1, 205, 4, 4]             410
           Conv2d-55            [-1, 205, 4, 4]          42,025
      BatchNorm2d-56            [-1, 205, 4, 4]             410
            Block-57            [-1, 205, 4, 4]               0
           Conv2d-58            [-1, 205, 2, 2]           1,845
      BatchNorm2d-59            [-1, 205, 2, 2]             410
           Conv2d-60            [-1, 410, 2, 2]          84,050
      BatchNorm2d-61            [-1, 410, 2, 2]             820
            Block-62            [-1, 410, 2, 2]               0
           Conv2d-63            [-1, 410, 2, 2]           3,690
      BatchNorm2d-64            [-1, 410, 2, 2]             820
           Conv2d-65            [-1, 410, 2, 2]         168,100
      BatchNorm2d-66            [-1, 410, 2, 2]             820
            Block-67            [-1, 410, 2, 2]               0
           Linear-68                   [-1, 10]           4,110
================================================================
Total params: 534,629
Trainable params: 534,629
Non-trainable params: 0
----------------------------------------------------------------
Input size (MB): 0.01
Forward/backward pass size (MB): 3.20
Params size (MB): 2.04
Estimated Total Size (MB): 5.26
----------------------------------------------------------------
Epoch: [ 1/ 20], Step: [ 100/ 390], Loss: 2.1317
…
[I] Model loaded from trained_Mobilenetv1.pt
mode: Non-pruned model=True, Test accuracy=77.5600
conv1.weight
layers.0.conv2.weight
layers.1.conv2.weight
layers.2.conv2.weight
layers.3.conv2.weight
layers.4.conv2.weight
layers.5.conv2.weight
layers.6.conv2.weight
layers.7.conv2.weight
layers.8.conv2.weight
layers.9.conv2.weight
layers.10.conv2.weight
layers.11.conv2.weight
layers.12.conv2.weight
----------------------------------------------------------------
        Layer (type)               Output Shape         Param #
================================================================
            Conv2d-1           [-1, 10, 32, 32]             270
       BatchNorm2d-2           [-1, 10, 32, 32]              20
            Conv2d-3           [-1, 10, 32, 32]              90
       BatchNorm2d-4           [-1, 10, 32, 32]              20
            Conv2d-5           [-1, 19, 32, 32]             190
       BatchNorm2d-6           [-1, 19, 32, 32]              38
             Block-7           [-1, 19, 32, 32]               0
            Conv2d-8           [-1, 19, 16, 16]             171
       BatchNorm2d-9           [-1, 19, 16, 16]              38
           Conv2d-10           [-1, 39, 16, 16]             741
      BatchNorm2d-11           [-1, 39, 16, 16]              78
            Block-12           [-1, 39, 16, 16]               0
           Conv2d-13           [-1, 39, 16, 16]             351
      BatchNorm2d-14           [-1, 39, 16, 16]              78
           Conv2d-15           [-1, 39, 16, 16]           1,521
      BatchNorm2d-16           [-1, 39, 16, 16]              78
            Block-17           [-1, 39, 16, 16]               0
           Conv2d-18             [-1, 39, 8, 8]             351
      BatchNorm2d-19             [-1, 39, 8, 8]              78
           Conv2d-20             [-1, 77, 8, 8]           3,003
      BatchNorm2d-21             [-1, 77, 8, 8]             154
            Block-22             [-1, 77, 8, 8]               0
           Conv2d-23             [-1, 77, 8, 8]             693
      BatchNorm2d-24             [-1, 77, 8, 8]             154
           Conv2d-25             [-1, 77, 8, 8]           5,929
      BatchNorm2d-26             [-1, 77, 8, 8]             154
            Block-27             [-1, 77, 8, 8]               0
           Conv2d-28             [-1, 77, 4, 4]             693
      BatchNorm2d-29             [-1, 77, 4, 4]             154
           Conv2d-30            [-1, 154, 4, 4]          11,858
      BatchNorm2d-31            [-1, 154, 4, 4]             308
            Block-32            [-1, 154, 4, 4]               0
           Conv2d-33            [-1, 154, 4, 4]           1,386
      BatchNorm2d-34            [-1, 154, 4, 4]             308
           Conv2d-35            [-1, 154, 4, 4]          23,716
      BatchNorm2d-36            [-1, 154, 4, 4]             308
            Block-37            [-1, 154, 4, 4]               0
           Conv2d-38            [-1, 154, 4, 4]           1,386
      BatchNorm2d-39            [-1, 154, 4, 4]             308
           Conv2d-40            [-1, 154, 4, 4]          23,716
      BatchNorm2d-41            [-1, 154, 4, 4]             308
            Block-42            [-1, 154, 4, 4]               0
           Conv2d-43            [-1, 154, 4, 4]           1,386
      BatchNorm2d-44            [-1, 154, 4, 4]             308
           Conv2d-45            [-1, 154, 4, 4]          23,716
      BatchNorm2d-46            [-1, 154, 4, 4]             308
            Block-47            [-1, 154, 4, 4]               0
           Conv2d-48            [-1, 154, 4, 4]           1,386
      BatchNorm2d-49            [-1, 154, 4, 4]             308
           Conv2d-50            [-1, 154, 4, 4]          23,716
      BatchNorm2d-51            [-1, 154, 4, 4]             308
            Block-52            [-1, 154, 4, 4]               0
           Conv2d-53            [-1, 154, 4, 4]           1,386
      BatchNorm2d-54            [-1, 154, 4, 4]             308
           Conv2d-55            [-1, 154, 4, 4]          23,716
      BatchNorm2d-56            [-1, 154, 4, 4]             308
            Block-57            [-1, 154, 4, 4]               0
           Conv2d-58            [-1, 154, 2, 2]           1,386
      BatchNorm2d-59            [-1, 154, 2, 2]             308
           Conv2d-60            [-1, 307, 2, 2]          47,278
      BatchNorm2d-61            [-1, 307, 2, 2]             614
            Block-62            [-1, 307, 2, 2]               0
           Conv2d-63            [-1, 307, 2, 2]           2,763
      BatchNorm2d-64            [-1, 307, 2, 2]             614
           Conv2d-65            [-1, 307, 2, 2]          94,249
      BatchNorm2d-66            [-1, 307, 2, 2]             614
            Block-67            [-1, 307, 2, 2]               0
           Linear-68                   [-1, 10]           3,080
================================================================
Total params: 306,709
Trainable params: 306,709
Non-trainable params: 0
----------------------------------------------------------------
Input size (MB): 0.01
Forward/backward pass size (MB): 2.41
Params size (MB): 1.17
Estimated Total Size (MB): 3.59
----------------------------------------------------------------
Epoch: [ 1/ 20], Step: [ 100/ 390], Loss: 2.2605
…
[I] Model loaded from trained_Mobilenetv1.pt
mode: Non-pruned model=True, Test accuracy=77.5600
conv1.weight
layers.0.conv2.weight
layers.1.conv2.weight
layers.2.conv2.weight
layers.3.conv2.weight
layers.4.conv2.weight
layers.5.conv2.weight
layers.6.conv2.weight
layers.7.conv2.weight
layers.8.conv2.weight
layers.9.conv2.weight
layers.10.conv2.weight
layers.11.conv2.weight
layers.12.conv2.weight
----------------------------------------------------------------
        Layer (type)               Output Shape         Param #
================================================================
            Conv2d-1            [-1, 7, 32, 32]             189
       BatchNorm2d-2            [-1, 7, 32, 32]              14
            Conv2d-3            [-1, 7, 32, 32]              63
       BatchNorm2d-4            [-1, 7, 32, 32]              14
            Conv2d-5           [-1, 13, 32, 32]              91
       BatchNorm2d-6           [-1, 13, 32, 32]              26
             Block-7           [-1, 13, 32, 32]               0
            Conv2d-8           [-1, 13, 16, 16]             117
       BatchNorm2d-9           [-1, 13, 16, 16]              26
           Conv2d-10           [-1, 26, 16, 16]             338
      BatchNorm2d-11           [-1, 26, 16, 16]              52
            Block-12           [-1, 26, 16, 16]               0
           Conv2d-13           [-1, 26, 16, 16]             234
      BatchNorm2d-14           [-1, 26, 16, 16]              52
           Conv2d-15           [-1, 26, 16, 16]             676
      BatchNorm2d-16           [-1, 26, 16, 16]              52
            Block-17           [-1, 26, 16, 16]               0
           Conv2d-18             [-1, 26, 8, 8]             234
      BatchNorm2d-19             [-1, 26, 8, 8]              52
           Conv2d-20             [-1, 52, 8, 8]           1,352
      BatchNorm2d-21             [-1, 52, 8, 8]             104
            Block-22             [-1, 52, 8, 8]               0
           Conv2d-23             [-1, 52, 8, 8]             468
      BatchNorm2d-24             [-1, 52, 8, 8]             104
           Conv2d-25             [-1, 52, 8, 8]           2,704
      BatchNorm2d-26             [-1, 52, 8, 8]             104
            Block-27             [-1, 52, 8, 8]               0
           Conv2d-28             [-1, 52, 4, 4]             468
      BatchNorm2d-29             [-1, 52, 4, 4]             104
           Conv2d-30            [-1, 103, 4, 4]           5,356
      BatchNorm2d-31            [-1, 103, 4, 4]             206
            Block-32            [-1, 103, 4, 4]               0
           Conv2d-33            [-1, 103, 4, 4]             927
      BatchNorm2d-34            [-1, 103, 4, 4]             206
           Conv2d-35            [-1, 103, 4, 4]          10,609
      BatchNorm2d-36            [-1, 103, 4, 4]             206
            Block-37            [-1, 103, 4, 4]               0
           Conv2d-38            [-1, 103, 4, 4]             927
      BatchNorm2d-39            [-1, 103, 4, 4]             206
           Conv2d-40            [-1, 103, 4, 4]          10,609
      BatchNorm2d-41            [-1, 103, 4, 4]             206
            Block-42            [-1, 103, 4, 4]               0
           Conv2d-43            [-1, 103, 4, 4]             927
      BatchNorm2d-44            [-1, 103, 4, 4]             206
           Conv2d-45            [-1, 103, 4, 4]          10,609
      BatchNorm2d-46            [-1, 103, 4, 4]             206
            Block-47            [-1, 103, 4, 4]               0
           Conv2d-48            [-1, 103, 4, 4]             927
      BatchNorm2d-49            [-1, 103, 4, 4]             206
           Conv2d-50            [-1, 103, 4, 4]          10,609
      BatchNorm2d-51            [-1, 103, 4, 4]             206
            Block-52            [-1, 103, 4, 4]               0
           Conv2d-53            [-1, 103, 4, 4]             927
      BatchNorm2d-54            [-1, 103, 4, 4]             206
           Conv2d-55            [-1, 103, 4, 4]          10,609
      BatchNorm2d-56            [-1, 103, 4, 4]             206
            Block-57            [-1, 103, 4, 4]               0
           Conv2d-58            [-1, 103, 2, 2]             927
      BatchNorm2d-59            [-1, 103, 2, 2]             206
           Conv2d-60            [-1, 205, 2, 2]          21,115
      BatchNorm2d-61            [-1, 205, 2, 2]             410
            Block-62            [-1, 205, 2, 2]               0
           Conv2d-63            [-1, 205, 2, 2]           1,845
      BatchNorm2d-64            [-1, 205, 2, 2]             410
           Conv2d-65            [-1, 205, 2, 2]          42,025
      BatchNorm2d-66            [-1, 205, 2, 2]             410
            Block-67            [-1, 205, 2, 2]               0
           Linear-68                   [-1, 10]           2,060
================================================================
Total params: 142,348
Trainable params: 142,348
Non-trainable params: 0
----------------------------------------------------------------
Input size (MB): 0.01
Forward/backward pass size (MB): 1.63
Params size (MB): 0.54
Estimated Total Size (MB): 2.18
----------------------------------------------------------------
Epoch: [ 1/ 20], Step: [ 100/ 390], Loss: 2.4081
…
[I] Model loaded from trained_Mobilenetv1.pt
mode: Non-pruned model=True, Test accuracy=77.5600
conv1.weight
layers.0.conv2.weight
layers.1.conv2.weight
layers.2.conv2.weight
layers.3.conv2.weight
layers.4.conv2.weight
layers.5.conv2.weight
layers.6.conv2.weight
layers.7.conv2.weight
layers.8.conv2.weight
layers.9.conv2.weight
layers.10.conv2.weight
layers.11.conv2.weight
layers.12.conv2.weight
----------------------------------------------------------------
        Layer (type)               Output Shape         Param #
================================================================
            Conv2d-1            [-1, 4, 32, 32]             108
       BatchNorm2d-2            [-1, 4, 32, 32]               8
            Conv2d-3            [-1, 4, 32, 32]              36
       BatchNorm2d-4            [-1, 4, 32, 32]               8
            Conv2d-5            [-1, 7, 32, 32]              28
       BatchNorm2d-6            [-1, 7, 32, 32]              14
             Block-7            [-1, 7, 32, 32]               0
            Conv2d-8            [-1, 7, 16, 16]              63
       BatchNorm2d-9            [-1, 7, 16, 16]              14
           Conv2d-10           [-1, 13, 16, 16]              91
      BatchNorm2d-11           [-1, 13, 16, 16]              26
            Block-12           [-1, 13, 16, 16]               0
           Conv2d-13           [-1, 13, 16, 16]             117
      BatchNorm2d-14           [-1, 13, 16, 16]              26
           Conv2d-15           [-1, 13, 16, 16]             169
      BatchNorm2d-16           [-1, 13, 16, 16]              26
            Block-17           [-1, 13, 16, 16]               0
           Conv2d-18             [-1, 13, 8, 8]             117
      BatchNorm2d-19             [-1, 13, 8, 8]              26
           Conv2d-20             [-1, 26, 8, 8]             338
      BatchNorm2d-21             [-1, 26, 8, 8]              52
            Block-22             [-1, 26, 8, 8]               0
           Conv2d-23             [-1, 26, 8, 8]             234
      BatchNorm2d-24             [-1, 26, 8, 8]              52
           Conv2d-25             [-1, 26, 8, 8]             676
      BatchNorm2d-26             [-1, 26, 8, 8]              52
            Block-27             [-1, 26, 8, 8]               0
           Conv2d-28             [-1, 26, 4, 4]             234
      BatchNorm2d-29             [-1, 26, 4, 4]              52
           Conv2d-30             [-1, 52, 4, 4]           1,352
      BatchNorm2d-31             [-1, 52, 4, 4]             104
            Block-32             [-1, 52, 4, 4]               0
           Conv2d-33             [-1, 52, 4, 4]             468
      BatchNorm2d-34             [-1, 52, 4, 4]             104
           Conv2d-35             [-1, 52, 4, 4]           2,704
      BatchNorm2d-36             [-1, 52, 4, 4]             104
            Block-37             [-1, 52, 4, 4]               0
           Conv2d-38             [-1, 52, 4, 4]             468
      BatchNorm2d-39             [-1, 52, 4, 4]             104
           Conv2d-40             [-1, 52, 4, 4]           2,704
      BatchNorm2d-41             [-1, 52, 4, 4]             104
            Block-42             [-1, 52, 4, 4]               0
           Conv2d-43             [-1, 52, 4, 4]             468
      BatchNorm2d-44             [-1, 52, 4, 4]             104
           Conv2d-45             [-1, 52, 4, 4]           2,704
      BatchNorm2d-46             [-1, 52, 4, 4]             104
            Block-47             [-1, 52, 4, 4]               0
           Conv2d-48             [-1, 52, 4, 4]             468
      BatchNorm2d-49             [-1, 52, 4, 4]             104
           Conv2d-50             [-1, 52, 4, 4]           2,704
      BatchNorm2d-51             [-1, 52, 4, 4]             104
            Block-52             [-1, 52, 4, 4]               0
           Conv2d-53             [-1, 52, 4, 4]             468
      BatchNorm2d-54             [-1, 52, 4, 4]             104
           Conv2d-55             [-1, 52, 4, 4]           2,704
      BatchNorm2d-56             [-1, 52, 4, 4]             104
            Block-57             [-1, 52, 4, 4]               0
           Conv2d-58             [-1, 52, 2, 2]             468
      BatchNorm2d-59             [-1, 52, 2, 2]             104
           Conv2d-60            [-1, 103, 2, 2]           5,356
      BatchNorm2d-61            [-1, 103, 2, 2]             206
            Block-62            [-1, 103, 2, 2]               0
           Conv2d-63            [-1, 103, 2, 2]             927
      BatchNorm2d-64            [-1, 103, 2, 2]             206
           Conv2d-65            [-1, 103, 2, 2]          10,609
      BatchNorm2d-66            [-1, 103, 2, 2]             206
            Block-67            [-1, 103, 2, 2]               0
           Linear-68                   [-1, 10]           1,040
================================================================
Total params: 40,045
Trainable params: 40,045
Non-trainable params: 0
----------------------------------------------------------------
Input size (MB): 0.01
Forward/backward pass size (MB): 0.85
Params size (MB): 0.15
Estimated Total Size (MB): 1.01
----------------------------------------------------------------
Epoch: [ 1/ 20], Step: [ 100/ 390], Loss: 2.2729
…
