1 Physical GPUs, 1 Logical GPUs
Model: "sequential"
_________________________________________________________________
Layer (type)                 Output Shape              Param #   
=================================================================
block1_conv1 (Conv2D)        (None, 32, 32, 64)        1792      
_________________________________________________________________
activation (Activation)      (None, 32, 32, 64)        0         
_________________________________________________________________
block1_pool (MaxPooling2D)   (None, 16, 16, 64)        0         
_________________________________________________________________
block2_conv1 (Conv2D)        (None, 16, 16, 128)       73856     
_________________________________________________________________
activation_1 (Activation)    (None, 16, 16, 128)       0         
_________________________________________________________________
block2_pool (MaxPooling2D)   (None, 8, 8, 128)         0         
_________________________________________________________________
block3_conv1 (Conv2D)        (None, 8, 8, 256)         295168    
_________________________________________________________________
activation_2 (Activation)    (None, 8, 8, 256)         0         
_________________________________________________________________
block3_conv2 (Conv2D)        (None, 8, 8, 256)         590080    
_________________________________________________________________
activation_3 (Activation)    (None, 8, 8, 256)         0         
_________________________________________________________________
block3_pool (MaxPooling2D)   (None, 4, 4, 256)         0         
_________________________________________________________________
block4_conv1 (Conv2D)        (None, 4, 4, 512)         1180160   
_________________________________________________________________
activation_4 (Activation)    (None, 4, 4, 512)         0         
_________________________________________________________________
block4_conv2 (Conv2D)        (None, 4, 4, 512)         2359808   
_________________________________________________________________
activation_5 (Activation)    (None, 4, 4, 512)         0         
_________________________________________________________________
block4_pool (MaxPooling2D)   (None, 2, 2, 512)         0         
_________________________________________________________________
block5_conv1 (Conv2D)        (None, 2, 2, 512)         2359808   
_________________________________________________________________
activation_6 (Activation)    (None, 2, 2, 512)         0         
_________________________________________________________________
block5_conv2 (Conv2D)        (None, 2, 2, 512)         2359808   
_________________________________________________________________
activation_7 (Activation)    (None, 2, 2, 512)         0         
_________________________________________________________________
block5_pool (MaxPooling2D)   (None, 1, 1, 512)         0         
_________________________________________________________________
flatten (Flatten)            (None, 512)               0         
_________________________________________________________________
fc1 (Dense)                  (None, 512)               262656    
_________________________________________________________________
activation_8 (Activation)    (None, 512)               0         
_________________________________________________________________
fc2 (Dense)                  (None, 512)               262656    
_________________________________________________________________
activation_9 (Activation)    (None, 512)               0         
_________________________________________________________________
fc3 (Dense)                  (None, 10)                5130      
_________________________________________________________________
activation_10 (Activation)   (None, 10)                0         
=================================================================
Total params: 9,750,922
Trainable params: 9,750,922
Non-trainable params: 0
_________________________________________________________________
None
Epoch 1/100
  1/391 [..............................] - ETA: 0s - loss: 2.3032 - accuracy: 0.0781
…
